…
iter_size: 1
I0422 07:02:41.681406  2460 solver.cpp:81] Creating training net from train_net file: /home/ubuntu/pynb/caffe-future/train/config/train.prototxt
I0422 07:02:41.682379  2460 net.cpp:49] Initializing net from parameters: 
state {
  phase: TRAIN
}
layer {
  name: "data"
  type: "Python"
  top: "data"
  top: "label"
  python_param {
    module: "voc_layers"
    layer: "SBDDSegDataLayer"
    param_str: "{\'sbdd_dir\': \'../caffe-future/train/dataset\', \'seed\': 1337, \'split\': \'train\', \'mean\': (104.00699, 116.66877, 122.67892)}"
  }
}
layer {
  name: "conv1_1"
  type: "Convolution"
  bottom: "data"
  top: "conv1_1"
  param {
    lr_mult: 1
    decay_mult: 1
  }
  param {
    lr_mult: 2
    decay_mult: 0
  }
  convolution_param {
    num_output: 64
    pad: 100
    kernel_size: 3
    stride: 1
  }
}
layer {
  name: "relu1_1"
  type: "ReLU"
  bottom: "conv1_1"
  top: "conv1_1"
}
layer {
  name: "conv1_2"
  type: "Convolution"
  bottom: "conv1_1"
  top: "conv1_2"
  param {
    lr_mult: 1
    decay_mult: 1
  }
  param {
    lr_mult: 2
    decay_mult: 0
  }
  convolution_param {
    num_output: 64
    pad: 1
    kernel_size: 3
    stride: 1
  }
}
layer {
  name: "relu1_2"
  type: "ReLU"
  bottom: "conv1_2"
  top: "conv1_2"
}
layer {
  name: "pool1"
  type: "Pooling"
  bottom: "conv1_2"
  top: "pool1"
  pooling_param {
    pool: MAX
    kernel_size: 2
    stride: 2
  }
}
layer {
  name: "conv2_1"
  type: "Convolution"
  bottom: "pool1"
  top: "conv2_1"
  param {
    lr_mult: 1
    decay_mult: 1
  }
  param {
    lr_mult: 2
    decay_mult: 0
  }
  convolution_param {
    num_output: 128
    pad: 1
    kernel_size: 3
    stride: 1
  }
}
layer {
  name: "relu2_1"
  type: "ReLU"
  bottom: "conv2_1"
  top: "conv2_1"
}
layer {
  name: "conv2_2"
  type: "Convolution"
  bottom: "conv2_1"
  top: "conv2_2"
  param {
    lr_mult: 1
    decay_mult: 1
  }
  param {
    lr_mult: 2
    decay_mult: 0
  }
  convolution_param {
    num_output: 128
    pad: 1
    kernel_size: 3
    stride: 1
  }
}
layer {
  name: "relu2_2"
  type: "ReLU"
  bottom: "conv2_2"
  top: "conv2_2"
}
layer {
  name: "pool2"
  type: "Pooling"
  bottom: "conv2_2"
  top: "pool2"
  pooling_param {
    pool: MAX
    kernel_size: 2
    stride: 2
  }
}
layer {
  name: "conv3_1"
  type: "Convolution"
  bottom: "pool2"
  top: "conv3_1"
  param {
    lr_mult: 1
    decay_mult: 1
  }
  param {
    lr_mult: 2
    decay_mult: 0
  }
  convolution_param {
    num_output: 256
    pad: 1
    kernel_size: 3
    stride: 1
  }
}
layer {
  name: "relu3_1"
  type: "ReLU"
  bottom: "conv3_1"
  top: "conv3_1"
}
layer {
  name: "conv3_2"
  type: "Convolution"
  bottom: "conv3_1"
  top: "conv3_2"
  param {
    lr_mult: 1
    decay_mult: 1
  }
  param {
    lr_mult: 2
    decay_mult: 0
  }
  convolution_param {
    num_output: 256
    pad: 1
    kernel_size: 3
    stride: 1
  }
}
layer {
  name: "relu3_2"
  type: "ReLU"
  bottom: "conv3_2"
  top: "conv3_2"
}
layer {
  name: "conv3_3"
  type: "Convolution"
  bottom: "conv3_2"
  top: "conv3_3"
  param {
    lr_mult: 1
    decay_mult: 1
  }
  param {
    lr_mult: 2
    decay_mult: 0
  }
  convolution_param {
    num_output: 256
    pad: 1
    kernel_size: 3
    stride: 1
  }
}
layer {
  name: "relu3_3"
  type: "ReLU"
  bottom: "conv3_3"
  top: "conv3_3"
}
layer {
  name: "pool3"
  type: "Pooling"
  bottom: "conv3_3"
  top: "pool3"
  pooling_param {
    pool: MAX
    kernel_size: 2
    stride: 2
  }
}
layer {
  name: "conv4_1"
  type: "Convolution"
  bottom: "pool3"
  top: "conv4_1"
  param {
    lr_mult: 1
    decay_mult: 1
  }
  param {
    lr_mult: 2
    decay_mult: 0
  }
  convolution_param {
    num_output: 512
    pad: 1
    kernel_size: 3
    stride: 1
  }
}
layer {
  name: "relu4_1"
  type: "ReLU"
  bottom: "conv4_1"
  top: "conv4_1"
}
layer {
  name: "conv4_2"
  type: "Convolution"
  bottom: "conv4_1"
  top: "conv4_2"
  param {
    lr_mult: 1
    decay_mult: 1
  }
  param {
    lr_mult: 2
    decay_mult: 0
  }
  convolution_param {
    num_output: 512
    pad: 1
    kernel_size: 3
    stride: 1
  }
}
layer {
  name: "relu4_2"
  type: "ReLU"
  bottom: "conv4_2"
  top: "conv4_2"
}
layer {
  name: "conv4_3"
  type: "Convolution"
  bottom: "conv4_2"
  top: "conv4_3"
  param {
    lr_mult: 1
    decay_mult: 1
  }
  param {
    lr_mult: 2
    decay_mult: 0
  }
  convolution_param {
    num_output: 512
    pad: 1
    kernel_size: 3
    stride: 1
  }
}
layer {
  name: "relu4_3"
  type: "ReLU"
  bottom: "conv4_3"
  top: "conv4_3"
}
layer {
  name: "pool4"
  type: "Pooling"
  bottom: "conv4_3"
  top: "pool4"
  pooling_param {
    pool: MAX
    kernel_size: 2
    stride: 2
  }
}
layer {
  name: "conv5_1"
  type: "Convolution"
  bottom: "pool4"
  top: "conv5_1"
  param {
    lr_mult: 1
    decay_mult: 1
  }
  param {
    lr_mult: 2
    decay_mult: 0
  }
  convolution_param {
    num_output: 512
    pad: 1
    kernel_size: 3
    stride: 1
  }
}
layer {
  name: "relu5_1"
  type: "ReLU"
  bottom: "conv5_1"
  top: "conv5_1"
}
layer {
  name: "conv5_2"
  type: "Convolution"
  bottom: "conv5_1"
  top: "conv5_2"
  param {
    lr_mult: 1
    decay_mult: 1
  }
  param {
    lr_mult: 2
    decay_mult: 0
  }
  convolution_param {
    num_output: 512
    pad: 1
    kernel_size: 3
    stride: 1
  }
}
layer {
  name: "relu5_2"
  type: "ReLU"
  bottom: "conv5_2"
  top: "conv5_2"
}
layer {
  name: "conv5_3"
  type: "Convolution"
  bottom: "conv5_2"
  top: "conv5_3"
  param {
    lr_mult: 1
    decay_mult: 1
  }
  param {
    lr_mult: 2
    decay_mult: 0
  }
  convolution_param {
    num_output: 512
    pad: 1
    kernel_size: 3
    stride: 1
  }
}
layer {
  name: "relu5_3"
  type: "ReLU"
  bottom: "conv5_3"
  top: "conv5_3"
}
layer {
  name: "pool5"
  type: "Pooling"
  bottom: "conv5_3"
  top: "pool5"
  pooling_param {
    pool: MAX
    kernel_size: 2
    stride: 2
  }
}
layer {
  name: "fc6"
  type: "Convolution"
  bottom: "pool5"
  top: "fc6"
  param {
    lr_mult: 1
    decay_mult: 1
  }
  param {
    lr_mult: 2
    decay_mult: 0
  }
  convolution_param {
    num_output: 4096
    pad: 0
    kernel_size: 7
    stride: 1
  }
}
layer {
  name: "relu6"
  type: "ReLU"
  bottom: "fc6"
  top: "fc6"
}
layer {
  name: "drop6"
  type: "Dropout"
  bottom: "fc6"
  top: "fc6"
  dropout_param {
    dropout_ratio: 0.5
  }
}
layer {
  name: "fc7"
  type: "Convolution"
  bottom: "fc6"
  top: "fc7"
  param {
    lr_mult: 1
    decay_mult: 1
  }
  param {
    lr_mult: 2
    decay_mult: 0
  }
  convolution_param {
    num_output: 4096
    pad: 0
    kernel_size: 1
    stride: 1
  }
}
layer {
  name: "relu7"
  type: "ReLU"
  bottom: "fc7"
  top: "fc7"
}
layer {
  name: "drop7"
  type: "Dropout"
  bottom: "fc7"
  top: "fc7"
  dropout_param {
    dropout_ratio: 0.5
  }
}
layer {
  name: "score_fr"
  type: "Convolution"
  bottom: "fc7"
  top: "score_fr"
  param {
    lr_mult: 1
    decay_mult: 1
  }
  param {
    lr_mult: 2
    decay_mult: 0
  }
  convolution_param {
    num_output: 21
    pad: 0
    kernel_size: 1
  }
}
layer {
  name: "upscore"
  type: "Deconvolution"
  bottom: "score_fr"
  top: "upscore"
  param {
    lr_mult: 0
  }
  convolution_param {
    num_output: 21
    bias_term: false
    kernel_size: 64
    stride: 32
  }
}
layer {
  name: "score"
  type: "Crop"
  bottom: "upscore"
  bottom: "data"
  top: "score"
  crop_param {
    axis: 2
    offset: 19
  }
}
layer {
  name: "loss"
  type: "SoftmaxWithLoss"
  bottom: "score"
  bottom: "label"
  top: "loss"
  loss_param {
    ignore_label: 255
    normalize: false
  }
}
I0422 07:02:41.682554  2460 layer_factory.hpp:77] Creating layer data
I0422 07:02:41.682915  2460 net.cpp:91] Creating Layer data
I0422 07:02:41.682938  2460 net.cpp:399] data -> data
I0422 07:02:41.682963  2460 net.cpp:399] data -> label
I0422 07:02:41.720293  2460 net.cpp:141] Setting up data
I0422 07:02:41.720348  2460 net.cpp:148] Top shape: 1 3 375 500 (562500)
I0422 07:02:41.720357  2460 net.cpp:148] Top shape: 1 1 375 500 (187500)
I0422 07:02:41.720363  2460 net.cpp:156] Memory required for data: 3000000
I0422 07:02:41.720374  2460 layer_factory.hpp:77] Creating layer data_data_0_split
I0422 07:02:41.720401  2460 net.cpp:91] Creating Layer data_data_0_split
I0422 07:02:41.720408  2460 net.cpp:425] data_data_0_split <- data
I0422 07:02:41.720423  2460 net.cpp:399] data_data_0_split -> data_data_0_split_0
I0422 07:02:41.720441  2460 net.cpp:399] data_data_0_split -> data_data_0_split_1
I0422 07:02:41.720486  2460 net.cpp:141] Setting up data_data_0_split
I0422 07:02:41.720497  2460 net.cpp:148] Top shape: 1 3 375 500 (562500)
I0422 07:02:41.720504  2460 net.cpp:148] Top shape: 1 3 375 500 (562500)
I0422 07:02:41.720510  2460 net.cpp:156] Memory required for data: 7500000
I0422 07:02:41.720515  2460 layer_factory.hpp:77] Creating layer conv1_1
I0422 07:02:41.720537  2460 net.cpp:91] Creating Layer conv1_1
I0422 07:02:41.720547  2460 net.cpp:425] conv1_1 <- data_data_0_split_0
I0422 07:02:41.720558  2460 net.cpp:399] conv1_1 -> conv1_1
I0422 07:02:42.193756  2460 net.cpp:141] Setting up conv1_1
I0422 07:02:42.193814  2460 net.cpp:148] Top shape: 1 64 573 698 (25597056)
I0422 07:02:42.193820  2460 net.cpp:156] Memory required for data: 109888224
I0422 07:02:42.193850  2460 layer_factory.hpp:77] Creating layer relu1_1
I0422 07:02:42.193871  2460 net.cpp:91] Creating Layer relu1_1
I0422 07:02:42.193879  2460 net.cpp:425] relu1_1 <- conv1_1
I0422 07:02:42.193889  2460 net.cpp:386] relu1_1 -> conv1_1 (in-place)
I0422 07:02:42.194043  2460 net.cpp:141] Setting up relu1_1
I0422 07:02:42.194057  2460 net.cpp:148] Top shape: 1 64 573 698 (25597056)
I0422 07:02:42.194063  2460 net.cpp:156] Memory required for data: 212276448
I0422 07:02:42.194069  2460 layer_factory.hpp:77] Creating layer conv1_2
I0422 07:02:42.194089  2460 net.cpp:91] Creating Layer conv1_2
I0422 07:02:42.194095  2460 net.cpp:425] conv1_2 <- conv1_1
I0422 07:02:42.194103  2460 net.cpp:399] conv1_2 -> conv1_2
I0422 07:02:42.196744  2460 net.cpp:141] Setting up conv1_2
I0422 07:02:42.196766  2460 net.cpp:148] Top shape: 1 64 573 698 (25597056)
I0422 07:02:42.196772  2460 net.cpp:156] Memory required for data: 314664672
I0422 07:02:42.196785  2460 layer_factory.hpp:77] Creating layer relu1_2
I0422 07:02:42.196804  2460 net.cpp:91] Creating Layer relu1_2
I0422 07:02:42.196810  2460 net.cpp:425] relu1_2 <- conv1_2
I0422 07:02:42.196820  2460 net.cpp:386] relu1_2 -> conv1_2 (in-place)
I0422 07:02:42.197067  2460 net.cpp:141] Setting up relu1_2
I0422 07:02:42.197083  2460 net.cpp:148] Top shape: 1 64 573 698 (25597056)
I0422 07:02:42.197088  2460 net.cpp:156] Memory required for data: 417052896
I0422 07:02:42.197095  2460 layer_factory.hpp:77] Creating layer pool1
I0422 07:02:42.197111  2460 net.cpp:91] Creating Layer pool1
I0422 07:02:42.197124  2460 net.cpp:425] pool1 <- conv1_2
I0422 07:02:42.197134  2460 net.cpp:399] pool1 -> pool1
I0422 07:02:42.197188  2460 net.cpp:141] Setting up pool1
I0422 07:02:42.197199  2460 net.cpp:148] Top shape: 1 64 287 349 (6410432)
I0422 07:02:42.197204  2460 net.cpp:156] Memory required for data: 442694624
I0422 07:02:42.197211  2460 layer_factory.hpp:77] Creating layer conv2_1
I0422 07:02:42.197223  2460 net.cpp:91] Creating Layer conv2_1
I0422 07:02:42.197229  2460 net.cpp:425] conv2_1 <- pool1
I0422 07:02:42.197239  2460 net.cpp:399] conv2_1 -> conv2_1
I0422 07:02:42.198721  2460 net.cpp:141] Setting up conv2_1
I0422 07:02:42.198738  2460 net.cpp:148] Top shape: 1 128 287 349 (12820864)
I0422 07:02:42.198745  2460 net.cpp:156] Memory required for data: 493978080
I0422 07:02:42.198757  2460 layer_factory.hpp:77] Creating layer relu2_1
I0422 07:02:42.198770  2460 net.cpp:91] Creating Layer relu2_1
I0422 07:02:42.198777  2460 net.cpp:425] relu2_1 <- conv2_1
I0422 07:02:42.198796  2460 net.cpp:386] relu2_1 -> conv2_1 (in-place)
I0422 07:02:42.199043  2460 net.cpp:141] Setting up relu2_1
I0422 07:02:42.199057  2460 net.cpp:148] Top shape: 1 128 287 349 (12820864)
I0422 07:02:42.199064  2460 net.cpp:156] Memory required for data: 545261536
I0422 07:02:42.199070  2460 layer_factory.hpp:77] Creating layer conv2_2
I0422 07:02:42.199090  2460 net.cpp:91] Creating Layer conv2_2
I0422 07:02:42.199097  2460 net.cpp:425] conv2_2 <- conv2_1
I0422 07:02:42.199107  2460 net.cpp:399] conv2_2 -> conv2_2
I0422 07:02:42.200743  2460 net.cpp:141] Setting up conv2_2
I0422 07:02:42.200764  2460 net.cpp:148] Top shape: 1 128 287 349 (12820864)
I0422 07:02:42.200770  2460 net.cpp:156] Memory required for data: 596544992
I0422 07:02:42.200780  2460 layer_factory.hpp:77] Creating layer relu2_2
I0422 07:02:42.200798  2460 net.cpp:91] Creating Layer relu2_2
I0422 07:02:42.200804  2460 net.cpp:425] relu2_2 <- conv2_2
I0422 07:02:42.200812  2460 net.cpp:386] relu2_2 -> conv2_2 (in-place)
I0422 07:02:42.200968  2460 net.cpp:141] Setting up relu2_2
I0422 07:02:42.200981  2460 net.cpp:148] Top shape: 1 128 287 349 (12820864)
I0422 07:02:42.200989  2460 net.cpp:156] Memory required for data: 647828448
I0422 07:02:42.200995  2460 layer_factory.hpp:77] Creating layer pool2
I0422 07:02:42.201004  2460 net.cpp:91] Creating Layer pool2
I0422 07:02:42.201010  2460 net.cpp:425] pool2 <- conv2_2
I0422 07:02:42.201019  2460 net.cpp:399] pool2 -> pool2
I0422 07:02:42.201067  2460 net.cpp:141] Setting up pool2
I0422 07:02:42.201078  2460 net.cpp:148] Top shape: 1 128 144 175 (3225600)
I0422 07:02:42.201084  2460 net.cpp:156] Memory required for data: 660730848
I0422 07:02:42.201093  2460 layer_factory.hpp:77] Creating layer conv3_1
I0422 07:02:42.201107  2460 net.cpp:91] Creating Layer conv3_1
I0422 07:02:42.201112  2460 net.cpp:425] conv3_1 <- pool2
I0422 07:02:42.201122  2460 net.cpp:399] conv3_1 -> conv3_1
I0422 07:02:42.202839  2460 net.cpp:141] Setting up conv3_1
I0422 07:02:42.202857  2460 net.cpp:148] Top shape: 1 256 144 175 (6451200)
I0422 07:02:42.202863  2460 net.cpp:156] Memory required for data: 686535648
I0422 07:02:42.202877  2460 layer_factory.hpp:77] Creating layer relu3_1
I0422 07:02:42.202885  2460 net.cpp:91] Creating Layer relu3_1
I0422 07:02:42.202893  2460 net.cpp:425] relu3_1 <- conv3_1
I0422 07:02:42.202901  2460 net.cpp:386] relu3_1 -> conv3_1 (in-place)
I0422 07:02:42.203161  2460 net.cpp:141] Setting up relu3_1
I0422 07:02:42.203176  2460 net.cpp:148] Top shape: 1 256 144 175 (6451200)
I0422 07:02:42.203181  2460 net.cpp:156] Memory required for data: 712340448
I0422 07:02:42.203187  2460 layer_factory.hpp:77] Creating layer conv3_2
I0422 07:02:42.203207  2460 net.cpp:91] Creating Layer conv3_2
I0422 07:02:42.203212  2460 net.cpp:425] conv3_2 <- conv3_1
I0422 07:02:42.203222  2460 net.cpp:399] conv3_2 -> conv3_2
I0422 07:02:42.205696  2460 net.cpp:141] Setting up conv3_2
I0422 07:02:42.205729  2460 net.cpp:148] Top shape: 1 256 144 175 (6451200)
I0422 07:02:42.205734  2460 net.cpp:156] Memory required for data: 738145248
I0422 07:02:42.205745  2460 layer_factory.hpp:77] Creating layer relu3_2
I0422 07:02:42.205760  2460 net.cpp:91] Creating Layer relu3_2
I0422 07:02:42.205766  2460 net.cpp:425] relu3_2 <- conv3_2
I0422 07:02:42.205775  2460 net.cpp:386] relu3_2 -> conv3_2 (in-place)
I0422 07:02:42.206049  2460 net.cpp:141] Setting up relu3_2
I0422 07:02:42.206064  2460 net.cpp:148] Top shape: 1 256 144 175 (6451200)
I0422 07:02:42.206070  2460 net.cpp:156] Memory required for data: 763950048
I0422 07:02:42.206076  2460 layer_factory.hpp:77] Creating layer conv3_3
I0422 07:02:42.206095  2460 net.cpp:91] Creating Layer conv3_3
I0422 07:02:42.206102  2460 net.cpp:425] conv3_3 <- conv3_2
I0422 07:02:42.206113  2460 net.cpp:399] conv3_3 -> conv3_3
I0422 07:02:42.208647  2460 net.cpp:141] Setting up conv3_3
I0422 07:02:42.208673  2460 net.cpp:148] Top shape: 1 256 144 175 (6451200)
I0422 07:02:42.208679  2460 net.cpp:156] Memory required for data: 789754848
I0422 07:02:42.208690  2460 layer_factory.hpp:77] Creating layer relu3_3
I0422 07:02:42.208711  2460 net.cpp:91] Creating Layer relu3_3
I0422 07:02:42.208719  2460 net.cpp:425] relu3_3 <- conv3_3
I0422 07:02:42.208727  2460 net.cpp:386] relu3_3 -> conv3_3 (in-place)
I0422 07:02:42.208884  2460 net.cpp:141] Setting up relu3_3
I0422 07:02:42.208897  2460 net.cpp:148] Top shape: 1 256 144 175 (6451200)
I0422 07:02:42.208902  2460 net.cpp:156] Memory required for data: 815559648
I0422 07:02:42.208917  2460 layer_factory.hpp:77] Creating layer pool3
I0422 07:02:42.208930  2460 net.cpp:91] Creating Layer pool3
I0422 07:02:42.208937  2460 net.cpp:425] pool3 <- conv3_3
I0422 07:02:42.208945  2460 net.cpp:399] pool3 -> pool3
I0422 07:02:42.209005  2460 net.cpp:141] Setting up pool3
I0422 07:02:42.209017  2460 net.cpp:148] Top shape: 1 256 72 88 (1622016)
I0422 07:02:42.209022  2460 net.cpp:156] Memory required for data: 822047712
I0422 07:02:42.209028  2460 layer_factory.hpp:77] Creating layer conv4_1
I0422 07:02:42.209043  2460 net.cpp:91] Creating Layer conv4_1
I0422 07:02:42.209048  2460 net.cpp:425] conv4_1 <- pool3
I0422 07:02:42.209059  2460 net.cpp:399] conv4_1 -> conv4_1
I0422 07:02:42.214362  2460 net.cpp:141] Setting up conv4_1
I0422 07:02:42.214411  2460 net.cpp:148] Top shape: 1 512 72 88 (3244032)
I0422 07:02:42.214416  2460 net.cpp:156] Memory required for data: 835023840
I0422 07:02:42.214429  2460 layer_factory.hpp:77] Creating layer relu4_1
I0422 07:02:42.214443  2460 net.cpp:91] Creating Layer relu4_1
I0422 07:02:42.214450  2460 net.cpp:425] relu4_1 <- conv4_1
I0422 07:02:42.214469  2460 net.cpp:386] relu4_1 -> conv4_1 (in-place)
I0422 07:02:42.214725  2460 net.cpp:141] Setting up relu4_1
I0422 07:02:42.214741  2460 net.cpp:148] Top shape: 1 512 72 88 (3244032)
I0422 07:02:42.214747  2460 net.cpp:156] Memory required for data: 847999968
I0422 07:02:42.214753  2460 layer_factory.hpp:77] Creating layer conv4_2
I0422 07:02:42.214774  2460 net.cpp:91] Creating Layer conv4_2
I0422 07:02:42.214783  2460 net.cpp:425] conv4_2 <- conv4_1
I0422 07:02:42.214792  2460 net.cpp:399] conv4_2 -> conv4_2
I0422 07:02:42.222080  2460 net.cpp:141] Setting up conv4_2
I0422 07:02:42.222142  2460 net.cpp:148] Top shape: 1 512 72 88 (3244032)
I0422 07:02:42.222149  2460 net.cpp:156] Memory required for data: 860976096
I0422 07:02:42.222182  2460 layer_factory.hpp:77] Creating layer relu4_2
I0422 07:02:42.222199  2460 net.cpp:91] Creating Layer relu4_2
I0422 07:02:42.222208  2460 net.cpp:425] relu4_2 <- conv4_2
I0422 07:02:42.222218  2460 net.cpp:386] relu4_2 -> conv4_2 (in-place)
I0422 07:02:42.222494  2460 net.cpp:141] Setting up relu4_2
I0422 07:02:42.222515  2460 net.cpp:148] Top shape: 1 512 72 88 (3244032)
I0422 07:02:42.222522  2460 net.cpp:156] Memory required for data: 873952224
I0422 07:02:42.222528  2460 layer_factory.hpp:77] Creating layer conv4_3
I0422 07:02:42.222546  2460 net.cpp:91] Creating Layer conv4_3
I0422 07:02:42.222553  2460 net.cpp:425] conv4_3 <- conv4_2
I0422 07:02:42.222564  2460 net.cpp:399] conv4_3 -> conv4_3
I0422 07:02:42.229352  2460 net.cpp:141] Setting up conv4_3
I0422 07:02:42.229382  2460 net.cpp:148] Top shape: 1 512 72 88 (3244032)
I0422 07:02:42.229387  2460 net.cpp:156] Memory required for data: 886928352
I0422 07:02:42.229398  2460 layer_factory.hpp:77] Creating layer relu4_3
I0422 07:02:42.229408  2460 net.cpp:91] Creating Layer relu4_3
I0422 07:02:42.229414  2460 net.cpp:425] relu4_3 <- conv4_3
I0422 07:02:42.229429  2460 net.cpp:386] relu4_3 -> conv4_3 (in-place)
I0422 07:02:42.229589  2460 net.cpp:141] Setting up relu4_3
I0422 07:02:42.229602  2460 net.cpp:148] Top shape: 1 512 72 88 (3244032)
I0422 07:02:42.229609  2460 net.cpp:156] Memory required for data: 899904480
I0422 07:02:42.229614  2460 layer_factory.hpp:77] Creating layer pool4
I0422 07:02:42.229626  2460 net.cpp:91] Creating Layer pool4
I0422 07:02:42.229632  2460 net.cpp:425] pool4 <- conv4_3
I0422 07:02:42.229642  2460 net.cpp:399] pool4 -> pool4
I0422 07:02:42.229698  2460 net.cpp:141] Setting up pool4
I0422 07:02:42.229709  2460 net.cpp:148] Top shape: 1 512 36 44 (811008)
I0422 07:02:42.229725  2460 net.cpp:156] Memory required for data: 903148512
I0422 07:02:42.229732  2460 layer_factory.hpp:77] Creating layer conv5_1
I0422 07:02:42.229748  2460 net.cpp:91] Creating Layer conv5_1
I0422 07:02:42.229753  2460 net.cpp:425] conv5_1 <- pool4
I0422 07:02:42.229761  2460 net.cpp:399] conv5_1 -> conv5_1
I0422 07:02:42.236232  2460 net.cpp:141] Setting up conv5_1
I0422 07:02:42.236263  2460 net.cpp:148] Top shape: 1 512 36 44 (811008)
I0422 07:02:42.236269  2460 net.cpp:156] Memory required for data: 906392544
I0422 07:02:42.236280  2460 layer_factory.hpp:77] Creating layer relu5_1
I0422 07:02:42.236291  2460 net.cpp:91] Creating Layer relu5_1
I0422 07:02:42.236299  2460 net.cpp:425] relu5_1 <- conv5_1
I0422 07:02:42.236310  2460 net.cpp:386] relu5_1 -> conv5_1 (in-place)
I0422 07:02:42.236562  2460 net.cpp:141] Setting up relu5_1
I0422 07:02:42.236577  2460 net.cpp:148] Top shape: 1 512 36 44 (811008)
I0422 07:02:42.236583  2460 net.cpp:156] Memory required for data: 909636576
I0422 07:02:42.236595  2460 layer_factory.hpp:77] Creating layer conv5_2
I0422 07:02:42.236611  2460 net.cpp:91] Creating Layer conv5_2
I0422 07:02:42.236618  2460 net.cpp:425] conv5_2 <- conv5_1
I0422 07:02:42.236627  2460 net.cpp:399] conv5_2 -> conv5_2
I0422 07:02:42.243769  2460 net.cpp:141] Setting up conv5_2
I0422 07:02:42.243831  2460 net.cpp:148] Top shape: 1 512 36 44 (811008)
I0422 07:02:42.243846  2460 net.cpp:156] Memory required for data: 912880608
I0422 07:02:42.243862  2460 layer_factory.hpp:77] Creating layer relu5_2
I0422 07:02:42.243880  2460 net.cpp:91] Creating Layer relu5_2
I0422 07:02:42.243890  2460 net.cpp:425] relu5_2 <- conv5_2
I0422 07:02:42.243911  2460 net.cpp:386] relu5_2 -> conv5_2 (in-place)
I0422 07:02:42.244180  2460 net.cpp:141] Setting up relu5_2
I0422 07:02:42.244196  2460 net.cpp:148] Top shape: 1 512 36 44 (811008)
I0422 07:02:42.244205  2460 net.cpp:156] Memory required for data: 916124640
I0422 07:02:42.244211  2460 layer_factory.hpp:77] Creating layer conv5_3
I0422 07:02:42.244230  2460 net.cpp:91] Creating Layer conv5_3
I0422 07:02:42.244236  2460 net.cpp:425] conv5_3 <- conv5_2
I0422 07:02:42.244247  2460 net.cpp:399] conv5_3 -> conv5_3
I0422 07:02:42.251323  2460 net.cpp:141] Setting up conv5_3
I0422 07:02:42.251376  2460 net.cpp:148] Top shape: 1 512 36 44 (811008)
I0422 07:02:42.251384  2460 net.cpp:156] Memory required for data: 919368672
I0422 07:02:42.251401  2460 layer_factory.hpp:77] Creating layer relu5_3
I0422 07:02:42.251418  2460 net.cpp:91] Creating Layer relu5_3
I0422 07:02:42.251426  2460 net.cpp:425] relu5_3 <- conv5_3
I0422 07:02:42.251437  2460 net.cpp:386] relu5_3 -> conv5_3 (in-place)
I0422 07:02:42.251710  2460 net.cpp:141] Setting up relu5_3
I0422 07:02:42.251727  2460 net.cpp:148] Top shape: 1 512 36 44 (811008)
I0422 07:02:42.251734  2460 net.cpp:156] Memory required for data: 922612704
I0422 07:02:42.251739  2460 layer_factory.hpp:77] Creating layer pool5
I0422 07:02:42.251760  2460 net.cpp:91] Creating Layer pool5
I0422 07:02:42.251766  2460 net.cpp:425] pool5 <- conv5_3
I0422 07:02:42.251777  2460 net.cpp:399] pool5 -> pool5
I0422 07:02:42.251837  2460 net.cpp:141] Setting up pool5
I0422 07:02:42.251849  2460 net.cpp:148] Top shape: 1 512 18 22 (202752)
I0422 07:02:42.251854  2460 net.cpp:156] Memory required for data: 923423712
I0422 07:02:42.251860  2460 layer_factory.hpp:77] Creating layer fc6
I0422 07:02:42.251878  2460 net.cpp:91] Creating Layer fc6
I0422 07:02:42.251883  2460 net.cpp:425] fc6 <- pool5
I0422 07:02:42.251894  2460 net.cpp:399] fc6 -> fc6
I0422 07:02:42.529201  2460 net.cpp:141] Setting up fc6
I0422 07:02:42.529269  2460 net.cpp:148] Top shape: 1 4096 12 16 (786432)
I0422 07:02:42.529276  2460 net.cpp:156] Memory required for data: 926569440
I0422 07:02:42.529294  2460 layer_factory.hpp:77] Creating layer relu6
I0422 07:02:42.529310  2460 net.cpp:91] Creating Layer relu6
I0422 07:02:42.529320  2460 net.cpp:425] relu6 <- fc6
I0422 07:02:42.529332  2460 net.cpp:386] relu6 -> fc6 (in-place)
I0422 07:02:42.529602  2460 net.cpp:141] Setting up relu6
I0422 07:02:42.529629  2460 net.cpp:148] Top shape: 1 4096 12 16 (786432)
I0422 07:02:42.529635  2460 net.cpp:156] Memory required for data: 929715168
I0422 07:02:42.529642  2460 layer_factory.hpp:77] Creating layer drop6
I0422 07:02:42.529662  2460 net.cpp:91] Creating Layer drop6
I0422 07:02:42.529670  2460 net.cpp:425] drop6 <- fc6
I0422 07:02:42.529680  2460 net.cpp:386] drop6 -> fc6 (in-place)
I0422 07:02:42.529718  2460 net.cpp:141] Setting up drop6
I0422 07:02:42.529729  2460 net.cpp:148] Top shape: 1 4096 12 16 (786432)
I0422 07:02:42.529736  2460 net.cpp:156] Memory required for data: 932860896
I0422 07:02:42.529741  2460 layer_factory.hpp:77] Creating layer fc7
I0422 07:02:42.529758  2460 net.cpp:91] Creating Layer fc7
I0422 07:02:42.529764  2460 net.cpp:425] fc7 <- fc6
I0422 07:02:42.529774  2460 net.cpp:399] fc7 -> fc7
I0422 07:02:42.577535  2460 net.cpp:141] Setting up fc7
I0422 07:02:42.577608  2460 net.cpp:148] Top shape: 1 4096 12 16 (786432)
I0422 07:02:42.577616  2460 net.cpp:156] Memory required for data: 936006624
I0422 07:02:42.577644  2460 layer_factory.hpp:77] Creating layer relu7
I0422 07:02:42.577661  2460 net.cpp:91] Creating Layer relu7
I0422 07:02:42.577669  2460 net.cpp:425] relu7 <- fc7
I0422 07:02:42.577680  2460 net.cpp:386] relu7 -> fc7 (in-place)
I0422 07:02:42.577950  2460 net.cpp:141] Setting up relu7
I0422 07:02:42.577965  2460 net.cpp:148] Top shape: 1 4096 12 16 (786432)
I0422 07:02:42.577972  2460 net.cpp:156] Memory required for data: 939152352
I0422 07:02:42.577978  2460 layer_factory.hpp:77] Creating layer drop7
I0422 07:02:42.577991  2460 net.cpp:91] Creating Layer drop7
I0422 07:02:42.577996  2460 net.cpp:425] drop7 <- fc7
I0422 07:02:42.578006  2460 net.cpp:386] drop7 -> fc7 (in-place)
I0422 07:02:42.578049  2460 net.cpp:141] Setting up drop7
I0422 07:02:42.578060  2460 net.cpp:148] Top shape: 1 4096 12 16 (786432)
I0422 07:02:42.578065  2460 net.cpp:156] Memory required for data: 942298080
I0422 07:02:42.578071  2460 layer_factory.hpp:77] Creating layer score_fr
I0422 07:02:42.578088  2460 net.cpp:91] Creating Layer score_fr
I0422 07:02:42.578094  2460 net.cpp:425] score_fr <- fc7
I0422 07:02:42.578102  2460 net.cpp:399] score_fr -> score_fr
I0422 07:02:42.579186  2460 net.cpp:141] Setting up score_fr
I0422 07:02:42.579205  2460 net.cpp:148] Top shape: 1 21 12 16 (4032)
I0422 07:02:42.579210  2460 net.cpp:156] Memory required for data: 942314208
I0422 07:02:42.579221  2460 layer_factory.hpp:77] Creating layer upscore
I0422 07:02:42.579241  2460 net.cpp:91] Creating Layer upscore
I0422 07:02:42.579246  2460 net.cpp:425] upscore <- score_fr
I0422 07:02:42.579257  2460 net.cpp:399] upscore -> upscore
I0422 07:02:42.584273  2460 net.cpp:141] Setting up upscore
I0422 07:02:42.584331  2460 net.cpp:148] Top shape: 1 21 416 544 (4752384)
I0422 07:02:42.584337  2460 net.cpp:156] Memory required for data: 961323744
I0422 07:02:42.584360  2460 layer_factory.hpp:77] Creating layer score
I0422 07:02:42.584381  2460 net.cpp:91] Creating Layer score
I0422 07:02:42.584389  2460 net.cpp:425] score <- upscore
I0422 07:02:42.584398  2460 net.cpp:425] score <- data_data_0_split_1
I0422 07:02:42.584408  2460 net.cpp:399] score -> score
I0422 07:02:42.584471  2460 net.cpp:141] Setting up score
I0422 07:02:42.584487  2460 net.cpp:148] Top shape: 1 21 375 500 (3937500)
I0422 07:02:42.584493  2460 net.cpp:156] Memory required for data: 977073744
I0422 07:02:42.584511  2460 layer_factory.hpp:77] Creating layer loss
I0422 07:02:42.584525  2460 net.cpp:91] Creating Layer loss
I0422 07:02:42.584532  2460 net.cpp:425] loss <- score
I0422 07:02:42.584539  2460 net.cpp:425] loss <- label
I0422 07:02:42.584547  2460 net.cpp:399] loss -> loss
I0422 07:02:42.584566  2460 layer_factory.hpp:77] Creating layer loss
…
